dqn_lunar_lander.pth (torch, 22754 bytes, 6 tensors)

model.0.weight f4 [64, 8]
000000 6e 4c 7e 3e 8f 81 3c 3e 65 c8 b9 3b c9 57 13 3f
       0.24833843 0.18408798 0.005669641 0.57555825
000010 8a fe 4a be 13 20 1e bf a3 7c 86 bf 4c e3 66 be
       -0.19823661 -0.6176769 -1.0506786 -0.22547644
000020 8c 49 34 3f b3 55 b7 3b cd 9d 9a be 7d dd a0 be
       0.70424724 0.005594933 -0.30198517 -0.31418982
000030 c0 2a 84 3d 95 3c a2 be f3 0e 4a 3e 36 d1 ac 3e
       0.064534664 -0.31686845 0.19732265 0.33753365
000040 61 36 8b 3f ca 76 8d be 23 b0 17 bf d8 9d 89 bf
       1.087597 -0.2762969 -0.5925314 -1.0751295
000050 a0 b3 41 3f 06 98 88 3d 44 0b 0d be 0f b3 46 be
       0.7566471 0.06669621 -0.13773829 -0.19404243
000060 7b e5 06 bd 5a 0a e0 3f 34 9a 06 bf 8a 3c ab bf
       -0.032933693 1.7503159 -0.52579045 -1.337785
000070 0e 89 44 3f b2 12 e3 3e b8 46 78 bf 83 0a 27 bf
       0.7677163 0.443502 -0.9698291 -0.65250415
000080 bc 2c 67 bf 0e 76 d9 bd ef 2a 15 3f 27 0b 7e bf
       -0.90302634 -0.1061822 0.58268636 -0.9923577
000090 72 ec 40 bf 6e 29 21 bd 2d e2 81 3e 79 71 5f 3c
       -0.75360787 -0.03934615 0.2536787 0.013637894
0000a0 b2 a5 96 be ad e5 c3 3e 8b f5 b1 bf 5d 7b 66 bf
       -0.2942329 0.38261166 -1.3903059 -0.9003199
0000b0 e7 1b d9 3d da c3 1e be c1 95 11 bf e7 73 80 ba
       0.10601025 -0.15504399 -0.5686913 -0.0009800167
0000c0 b7 bd 21 3f 2e 6e 91 be b5 c6 99 3f 37 7b 3c 3e
       0.63180107 -0.28404373 1.2013766 0.18406378
0000d0 2a 14 a6 be 7e 03 27 3f f5 a1 09 bd ae 75 e9 be
       -0.3243726 0.65239704 -0.03360172 -0.45597595
0000e0 88 63 ee be 17 d9 7a bf f6 80 90 3e b1 da 0e c0
       -0.4656031 -0.979875 0.2822339 -2.2320979
0000f0 ee 11 d3 3e dd d6 b2 3e d2 cf e1 3e e5 d5 7a 3d
       0.41224617 0.34929553 0.44103867 0.061239142
000100 66 24 86 be 06 b9 38 3f 0f 3b b7 3f 77 c6 a4 bd
       -0.26199645 0.72157323 1.4314898 -0.08045667
000110 d8 dd 1b 3f 2e 4a 9a 3f 3f 34 5a bf 7e 6c 91 be
       0.6088538 1.2053888 -0.8523597 -0.28403085
000120 b6 b4 6b 3f ad 5f b9 bf a1 c7 19 3f 1c 99 d7 bf
       0.9207262 -1.4482323 0.60070235 -1.68436
000130 1f 7c 43 3f c7 35 4d be f7 4e 61 be 44 82 94 3e
       0.7636127 -0.20040046 -0.22002779 0.29005635
000140 4e 3f c3 3d 0e 8f 17 bf 3f 64 95 3f ac 41 2f bf
       0.09533559 -0.5920266 1.1671218 -0.6845958
000150 50 8a dc be f5 a8 a9 3e ff 5f a4 be b5 a7 28 bf
       -0.43074274 0.33136716 -0.3210449 -0.658809
000160 e5 f7 0d be 1d d3 29 3f c1 b1 00 bf 70 14 2f 3f
       -0.13864096 0.6633776 -0.5027123 0.6839056
000170 f1 4c 6e 3f 62 09 42 3e c1 0b 24 3f 25 a0 ae be
       0.93086153 0.18948892 0.64080435 -0.34106556
000180 c1 27 a5 be 7e d3 0a be e2 f6 25 3f 14 1f d7 3e
       -0.32256892 -0.1355724 0.6482984 0.42015898
000190 a9 c7 63 3d 11 41 8d 3f 88 e9 33 be 7d 57 c4 be
       0.055610333 1.1035482 -0.17569554 -0.38347998
0001a0 67 d6 79 be f9 2f 6b bf ec cb b2 3f 15 41 24 3e
       -0.24398194 -0.91870075 1.3968482 0.16040452
0001b0 f2 8b 57 bf 5a 65 c9 3e 90 00 d9 3e 1d 0f 78 3d
       -0.84197915 0.39335138 0.42383242 0.06056129
0001c0 eb 00 62 3f d5 90 09 3f 1c 64 2d be f9 6d 8d 3e
       0.8828265 0.5373662 -0.1693272 0.27622965
0001d0 d1 d6 9a 3f a6 df ba be 0e 08 ac be aa 69 ca 3e
       1.2096807 -0.36498755 -0.33599895 0.3953374
0001e0 b7 e2 ee be f8 f9 55 bf 1e 37 25 be 09 0f 4c 40
       -0.46657345 -0.8358455 -0.16134307 3.1884177
0001f0 78 72 48 bf ee 60 ba 3e f4 9b 49 bf 5c a2 5c be
       -0.78299665 0.36402076 -0.7875359 -0.2154631
000200 27 6e 2d 3d cd 18 79 3e 4a 14 a2 be 2e 43 af be
       0.042341378 0.24325867 -0.31656104 -0.34230942
000210 c6 41 83 bf 0b 5d d1 3e 67 4f 14 3f 74 ac d5 be
       -1.0254447 0.408913 0.5793366 -0.41733134
000220 83 e5 1f bf b0 59 fe be 7a dc ee 3e 76 29 76 3f
       -0.6245958 -0.496778 0.46652585 0.96157014
000230 91 17 2a c0 1a 3b 5e be 29 d2 b1 bc ef 56 2d 3e
       -2.6576884 -0.21702233 -0.021706657 0.16927694
000240 e2 0a d8 3f a7 71 14 bf c2 bb 7d 3f 79 b7 8c bf
       1.6878321 -0.5798592 0.9911462 -1.0993491
000250 51 cf 13 3f 25 11 df 3e 10 55 7d bd c5 2c 5c be
       0.57738215 0.43567768 -0.0618487 -0.21501453
000260 9a ff 93 bd a5 80 aa bd e6 76 d9 be e0 e8 15 bf
       -0.072264865 -0.08325318 -0.42473525 -0.58558464
000270 16 ee c9 3d 5c 91 71 bf c9 25 39 be b2 77 16 3d
       0.098598644 -0.94362426 -0.1808082 0.036735244
000280 c9 38 63 bf 34 c8 9c be 68 72 ab 3f 61 0a f4 bd
       -0.8875852 -0.30621493 1.3394289 -0.11916042
000290 a0 f0 57 bf 19 8d e3 3e f2 0c e7 b9 75 e6 3d 3e
       -0.8435154 0.44443586 -0.00044069398 0.18544944
0002a0 1d d1 3a 3e 18 1b c5 3e 2e 44 a6 bf 39 24 09 3c
       0.18243833 0.38497233 -1.2989557 0.008370453
0002b0 18 06 c4 3f b9 3a 8c bf fd e5 35 bf c5 6c 13 3e
       1.531436 -1.0955421 -0.7105406 0.14396961
0002c0 bd 19 10 3f 23 ac 58 3f 26 54 3d 3f 3a a8 dd 3f
       0.56289274 0.8463766 0.73956525 1.7316964
0002d0 21 6a 02 3f b2 3d 0b 3f fb ae 54 bf 9c 14 02 be
       0.5094319 0.54391015 -0.830795 -0.12703174
0002e0 02 84 b0 3f 6c 1c cf 3e af 47 1d bf 22 f0 a1 bf
       1.3790286 0.40451372 -0.61437505 -1.2651408
0002f0 ef f9 62 3f 48 32 22 be 5b ed cd be 8e ea 4e bf
       0.8866262 -0.15839493 -0.4022015 -0.8082665
000300 c2 75 1f 3e 42 dd fb 3e fc 30 73 3e f4 06 bc 3d
       0.15572265 0.49192244 0.23749155 0.09181014
000310 a1 6e 05 bf ff a0 6f 3f 94 eb 91 be 8a 61 fe 3d
       -0.5212193 0.93605036 -0.28500044 0.12420948
000320 9e 4f d4 3e 77 0f b1 3d 1b 70 76 bd fd 7b 16 bf
       0.41466993 0.08645528 -0.060165506 -0.5878294
000330 13 0b 96 bf 04 da e0 be 28 f6 17 bf 42 0d 6f 3e
       -1.172213 -0.43916333 -0.5935998 0.23344901
000340 5e 81 04 3f 43 9b 99 3e cd 33 5e be 7d 31 7b bf
       0.517599 0.30001268 -0.21699448 -0.9812239
000350 68 72 06 bf 72 81 d1 3d 35 4e 9c bd b5 f5 77 3e
       -0.5251832 0.10229768 -0.07632104 0.24214824
000360 2e c6 95 be 63 57 2f bf 42 63 d2 bd aa 17 9e 3e
       -0.29252762 -0.68492717 -0.10272838 0.3087743
000370 34 44 74 bf ec 48 90 bf ab 90 a4 bf 20 40 fb 3d
       -0.9541657 -1.1272254 -1.2856649 0.1226809
000380 b9 b3 fb bd 49 dc b5 bf 1a 3c 13 3f eb 60 44 bf
       -0.12290139 -1.4207851 0.5751358 -0.76710385
000390 88 c3 95 bf 17 85 13 be ac e8 ac be 73 47 93 be
       -1.1700296 -0.14406238 -0.33771265 -0.2876545
0003a0 a8 8b 58 be 13 ac 86 3e ad 99 64 bf 2f 44 f5 bc
       -0.21147025 0.26303157 -0.8929699 -0.029939739
0003b0 2d 83 b1 3f 1d 4e 1f 3e f3 34 a2 be d7 2e d7 bc
       1.3868157 0.15557142 -0.31681022 -0.026267452
0003c0 b0 01 77 3f 05 2d fe 3e 25 07 c3 bf a7 30 1d be
       0.9648695 0.49643722 -1.5236555 -0.1535059
0003d0 44 21 bd bf 88 45 5a bf 94 e9 89 3e 19 72 72 3e
       -1.4775777 -0.85262346 0.26936018 0.23676337
0003e0 50 83 06 3f f1 19 49 3d a7 67 86 3f 9d cb 3a 3f
       0.52544117 0.049097005 1.0500382 0.7296694
0003f0 73 b5 6d 3c 1e 2b 8a 3f 2e ea c8 3c ca bb 9b bf
       0.014508593 1.0794408 0.024525728 -1.2166684

model.0.bias f4 [64]
000000 eb 88 0a 3f af ad e4 3e 32 78 92 be 5f bf 06 bf
       0.5411517 0.4466376 -0.28607327 -0.5263576
000010 dd 18 07 3f 64 aa 75 3e 7d 68 71 be 12 6f 84 be
       0.52772313 0.2399078 -0.23575015 -0.2586599
000020 4f 5d 6b bd 01 a3 37 3f 73 ec a7 be 27 63 88 3f
       -0.057462033 0.717331 -0.32797584 1.0655259
000030 29 ef 8e 3e e3 93 16 be 07 e2 ca 3e 42 05 ac 3c
       0.2791684 -0.14704852 0.3962557 0.0209986
000040 56 64 4d 3e c1 eb 44 3f 08 6d 3c be 9d 62 26 3f
       0.20057806 0.7692223 -0.18400967 0.6499422
000050 f1 9c 69 be f6 3e f4 3e cb fa b4 3e 7f 1b 9d 3e
       -0.22813775 0.47704285 0.3534759 0.3068504
000060 15 c6 19 3f dc 7e 85 3e 81 5b 0f 3f 6e 83 21 3f
       0.60067874 0.2607335 0.55999 0.6309117
000070 2d 39 65 bf c3 d2 24 3f d0 00 7f be 63 b0 93 3e
       -0.8954037 0.64384097 -0.24902654 0.2884551
000080 a6 8a de be 29 e5 78 3f 52 06 63 be e6 91 0e 3e
       -0.43465155 0.9722467 -0.2217038 0.13922843
000090 47 7d 0d be 6d 60 05 be 82 c1 e3 3e ef 8b ed 3e
       -0.13817321 -0.13025065 0.44483572 0.46395823
0000a0 9f 5e 1e 3e 92 2a 43 3f bf eb 99 3e e8 5b 5f 3f
       0.15465783 0.7623683 0.30062672 0.8724961
0000b0 d0 b5 4a 3f 5a af 59 3f ea 1c 04 3f 31 d8 4c 3f
       0.79183674 0.8503319 0.5160662 0.8001738
0000c0 42 75 ad 3f 94 65 01 3f 7f b4 16 3f ed 84 3f 3f
       1.3551409 0.5054562 0.58869165 0.74812204
0000d0 94 53 d6 3e c6 b3 04 3f 25 9d 79 be 53 73 a8 be
       0.4186064 0.5183681 -0.24376352 -0.32900485
0000e0 eb f3 e2 3e ff 36 3b 3e 0a 7c 43 3f 4e f9 34 bd
       0.4432672 0.18282698 0.76361144 -0.044183068
0000f0 cf 43 8d 3f db c8 ce 3e 32 c5 43 3f 8b a3 e6 3e
       1.1036319 0.40387616 0.7647277 0.45046648

model.2.weight f4 [64, 64]
000000 ea 29 16 bf ef ab e9 be 13 c9 94 be a2 69 97 3f
       -0.58657706 -0.45638987 -0.29059657 1.1829112
000010 ad c8 6e bf 4d b7 ee bd 51 bd fc bf 84 8d 6e bf
       -0.93274957 -0.116560556 -1.9745275 -0.93184686
000020 5c c0 87 3f 7e 43 35 3f 9f 17 d9 bf c4 65 ee 3e
       1.0605578 0.7080611 -1.6960334 0.46562016
000030 31 26 55 bf e6 09 d1 bf 1d 2e 54 bf 72 f4 f6 3e
       -0.832614 -1.6331146 -0.82882863 0.48233372
000040 a9 85 81 bf c5 67 f1 3e b2 44 58 bf 36 c1 72 bf
       -1.0118915 0.47149482 -0.8447982 -0.94826066
000050 f3 97 b0 bf b0 50 04 3e de f7 50 bf 6e 3a 56 bf
       -1.3796371 0.12921405 -0.81628215 -0.83682907
000060 c1 6c ed 3e 42 76 23 be 4e e5 39 3d 37 6c 68 bd
       0.46372035 -0.1596308 0.045384698 -0.056743827
000070 69 b6 32 c0 a4 73 3c be a7 91 63 3f a3 8f 3f bf
       -2.7923834 -0.18403488 0.8889412 -0.7482855
000080 e0 af ba bf 33 e5 ca 3e bc 1a 18 bf ac c3 af 3f
       -1.4584923 0.3962799 -0.59415793 1.3731589
000090 88 d6 ac 3d e4 2d f8 bf 49 27 df 3f 17 cd 82 be
       0.08439356 -1.9389005 1.7433864 -0.25547096
0000a0 69 ac d5 bf 49 64 0d 3f 63 1e 14 bf 62 bc da 3d
       -1.669324 0.5523115 -0.57858866 0.106804624
0000b0 78 2b 9f 3e bb 53 12 3f 61 fd 46 3f c1 62 ce 3e
       0.31087852 0.5715901 0.77730376 0.40309718
0000c0 a5 a3 56 3f c8 2e 04 3e 13 8e 08 bf 8d d1 83 3e
       0.8384345 0.1290847 -0.5334179 0.25745812
0000d0 24 e4 c7 bd b6 b0 29 bf 39 18 cf be 78 01 c8 be
       -0.09760311 -0.66285264 -0.40448168 -0.3906362
0000e0 0c a6 05 bf 8f c5 4c bf 9d fc 66 3e ee 21 21 bf
       -0.5220649 -0.7998895 0.22557302 -0.629424
0000f0 0d 18 ba 3e 95 fe 14 bf ca f0 99 3e 7a 10 32 3f
       0.36346474 -0.5820096 0.3006652 0.6955639
000100 d3 c8 99 3e 42 b8 0f 3d 62 fd 95 bf 69 46 09 bf
       0.3003603 0.03508783 -1.1717951 -0.5362306
000110 fd 5f 4c 3f e8 15 a0 3e ac b5 32 3d 3f ef 39 3f
       0.79833966 0.31266713 0.043630287 0.72630686
000120 de ac 5f bc 14 08 70 bf 68 2a 81 3f a0 0d 0e 3e
       -0.013652055 -0.93762326 1.0091066 0.13872385
000130 aa db da bf d1 e2 6c 3e d1 78 aa be c7 21 7d 3e
       -1.7098286 0.23133399 -0.332953 0.24719916
000140 a6 83 8d 3f 30 b0 3a 3b f9 1e 3d 3e a2 56 e6 3d
       1.1055801 0.0028486364 0.18468846 0.11246993
000150 3b 4f 6f bf 55 25 0c be 20 a8 a3 3e b7 bb a3 bf
       -0.9348027 -0.13686116 0.31964207 -1.2791661
000160 20 98 05 be 39 7b 82 3e 3e 34 cb 3e 07 92 00 3f
       -0.13046312 0.25484636 0.39688295 0.5022282
000170 d7 a1 e8 bd 5c dc 0a 3f f0 d9 5c bf 99 3a 8f be
       -0.113589935 0.5424249 -0.86270046 -0.27974394
000180 5e 25 fb bd f4 41 7c 3e 16 14 bc 3f 65 f1 0d c0
       -0.122629866 0.24634534 1.469363 -2.2178586
000190 79 26 48 3d e7 bd ae 3f a7 64 3c be 30 82 00 3f
       0.048864815 1.3651704 -0.18397771 0.5019865
0001a0 55 3f 2b bf 9d 04 63 bc 40 32 0a bf 86 27 df 3d
       -0.6689351 -0.01385608 -0.53982925 0.1089621
0001b0 20 3b 0a be 9a ab d5 bd 76 77 15 be 9f 4c 7f bd
       -0.13499117 -0.10433121 -0.14596352 -0.06232893
0001c0 5c fd aa bf a2 48 66 3e 8c 58 fe be 6d 09 c4 bf
       -1.3358569 0.22488645 -0.4967693 -1.5315377
0001d0 9e c6 35 be 0f c5 81 3f a4 17 73 bf 6b 17 24 bf
       -0.17751548 1.0138263 -0.9495795 -0.64098233
0001e0 f8 e1 3a be e1 94 0f 40 b6 d5 b7 c0 c9 03 70 3f
       -0.18250263 2.2434618 -5.7448378 0.93755776
0001f0 e9 3e 8e 3e 2a 5d 8d 3d a7 0b 24 3e 1f 2c d1 bf
       0.27782372 0.06902535 0.1602007 -1.634159
000200 98 10 b8 bd 1a 18 da 3e 37 76 bd 3e d2 7a f1 3c
       -0.0898754 0.42596513 0.37004253 0.02947751
000210 7a d0 00 be ff f5 22 3f b7 44 ac 3f 2c da a2 3e
       -0.12579527 0.6365661 1.345847 0.31807077
000220 ee 98 5a be 3a 10 bb be 09 5f 03 3f 82 8d 82 3c
       -0.213474 -0.36535817 0.5131689 0.015936617
000230 bc 10 8d 3e 2a 0b 9f 3f 80 4f 61 3f c9 6e 43 3f
       0.2755183 1.2425282 0.8801193 0.7634092
000240 75 9b 13 3f 24 eb 8b bf d0 1b dc 3f 3d fa d5 be
       0.57659084 -1.0931134 1.7195988 -0.4179248
000250 67 4f 69 3f 94 36 a7 be 52 23 2b 3f bc b0 3d 3f
       0.91136783 -0.32658827 0.6685077 0.740978
000260 34 7d 00 bf 03 af 96 be e0 f9 7e 3e 44 03 7c bf
       -0.50191045 -0.29430398 0.24900007 -0.9844248
000270 ff b6 5f be 2a a5 c5 3e 8c 40 25 bf ff a2 2a 3f
       -0.21847151 0.38602573 -0.64551616 0.6665496
000280 b4 b1 ac 3f b9 d7 07 bf 0a 24 2e 3f 58 42 c9 be
       1.3491731 -0.5306354 0.6802374 -0.3930843
000290 27 a1 1c 3d 09 c9 9c 3f 0e ac d7 bf b2 7f 0b 3f
       0.038239624 1.2248851 -1.6849382 0.5449172
0002a0 ca 34 2d 3f 73 03 11 bf 48 28 26 3f 7b 7c a2 bd
       0.67658675 -0.5664589 0.64905214 -0.07933899
0002b0 b0 d8 ea be c3 12 8e be 4c 10 0f bf 81 f2 d4 be
       -0.45868444 -0.2774869 -0.5588424 -0.41591266
0002c0 cb 7a 95 bf 18 5c ce 3e d5 89 1d 3f 7a c2 a8 be
       -1.1678098 0.40304637 0.6153844 -0.32960874
0002d0 cc 85 b7 3d 86 63 c7 3e d1 17 2d 3f ac a4 38 3f
       0.089610666 0.38943118 0.67614466 0.7212627
0002e0 01 5a ee 3e 28 ac 15 be 80 40 f8 3a db dc 9d 3f
       0.46553043 -0.14616454 0.0018940121 1.2333025
0002f0 ea 96 47 be a0 9a 01 3f f7 63 7c bd 7d ba 3a bd
       -0.19491163 0.50626564 -0.06161877 -0.045588005
000300 92 66 07 bc 9a 25 06 3f b4 1e c9 3e 40 0d ee be
       -0.008264201 0.52401125 0.39281237 -0.46494484
000310 fa 81 a9 3e 3c fb 1f 3f 7f 3d 57 3f a3 93 55 3f
       0.33106977 0.6249273 0.8407821 0.834284
000320 a6 44 2b bf df 39 e6 be 13 2f 8a 3f 90 7e 23 3e
       -0.66901624 -0.44966027 1.0795616 0.15966249
000330 47 08 86 3f d0 d8 cc 3f 3b ad 71 3f d3 53 b8 bc
       1.0471276 1.6003666 0.94404954 -0.022500908
000340 4c 07 d7 3e 62 b4 21 bf ef 69 b9 3f db 20 d0 3e
       0.41997755 -0.6316587 1.4485453 0.40650067
000350 99 95 8a 3f 15 d2 2f 3e 1e 6d 80 3f eb f3 1c 3e
       1.0826904 0.17169984 1.00333 0.15327422
000360 2a 18 db be 4a 5f 40 3e 78 ff d4 3e 49 9b 47 3d
       -0.42791873 0.1878635 0.41601157 0.048732076
000370 49 e1 f7 3e 94 5f 6c 3f 4d 4d 93 bf b4 5b 63 3f
       0.48414066 0.9233334 -1.1507965 0.888118
000380 1d ad f8 3e 96 5a 19 3e 49 01 ee 3f b2 75 0f bf
       0.48569575 0.14975962 1.8594142 -0.56038964
000390 16 42 c5 3e 61 9a 82 3f 54 1d e0 bf 22 e6 88 3f
       0.38526982 1.0203363 -1.750895 1.0695231
0003a0 df 07 89 3f 71 2a f7 be 3d 26 8a 3f c5 43 b0 bd
       1.0705527 -0.48274568 1.0792919 -0.08606676
0003b0 05 56 8d bd 3f 13 55 bd f5 32 96 be 95 36 06 3e
       -0.069011725 -0.052020308 -0.29335752 0.13106759
0003c0 9d a2 8d bf 98 0e 0a 3f e7 e0 42 3f 2f 25 d2 be
       -1.1065251 0.5392852 0.76124424 -0.41043994
0003d0 76 29 12 bf 10 7c 01 3f 39 fa 0b 3f a0 06 31 3f
       -0.57094514 0.5057993 0.54678684 0.69150734
0003e0 51 c4 45 3f f5 6a 13 3f fd 52 7a be da 9d 7b 3f
       0.7725268 0.5758508 -0.2444572 0.9828774
0003f0 cc b8 5c 3d b6 71 27 3f 8b 34 f5 bc 95 c9 15 bf
       0.053887174 0.65407884 -0.029932281 -0.58510715

model.2.bias f4 [64]
000000 99 b7 ae 3e 15 d5 9f 3e 34 64 3f be f4 21 9c 3d
       0.3412445 0.31217256 -0.18690568 0.076236635
000010 a9 03 8d be ca a2 93 be 07 cb c0 3e 48 06 23 3f
       -0.27541855 -0.28835136 0.37654898 0.6368146
000020 f1 60 05 3f 9a 50 31 be 96 98 c8 3e 27 cf 77 bc
       0.52101046 -0.17315903 0.39178914 -0.015125073
000030 ec 27 77 bd f5 c3 a8 3e 59 f3 41 3d f3 bf c1 3e
       -0.060340807 0.32962003 0.047351215 0.37841758
000040 3a fe 88 3d de f5 36 3f ac 6a 03 3f 06 cf 06 3e
       0.06689115 0.71468914 0.51334643 0.1316491
000050 99 cc 9e 3e c2 aa a1 3e cb e6 2a 3f fc 78 32 be
       0.3101547 0.3157559 0.6675841 -0.17428964
000060 c2 ec 9a 3e c2 ac 66 3f 6f e7 15 be ed 6b 14 3f
       0.30258757 0.9010736 -0.14639066 0.5797718
000070 1f 08 11 3e ba 75 04 3e 46 e3 04 be 61 39 81 3d
       0.14163254 0.12935534 -0.12977323 0.06309772
000080 76 e6 83 3e ea 01 9f 3e 37 f1 43 3d c5 3d bd 3e
       0.25761765 0.31056148 0.047837462 0.3696119
000090 85 64 c0 bd c8 b7 7f 3d 26 6f 0a 3e c9 6f 18 be
       -0.093941726 0.062431127 0.13518962 -0.14886393
0000a0 b1 1b 64 bd 91 dd 46 be 03 70 0b be b5 79 c2 bd
       -0.05569047 -0.19420458 -0.13616948 -0.0949587
0000b0 b2 2c 91 3e b8 22 86 bd 18 af 5d 3e 51 6a b4 bd
       0.28354412 -0.06549591 0.21648824 -0.08809341
0000c0 c5 49 3d be 8e 19 8d bd 20 75 28 3c 27 68 6c be
       -0.18485172 -0.0688964 0.010281831 -0.23086606
0000d0 87 24 c0 3e 31 31 84 3e 65 b2 d8 3e c9 cb af 3d
       0.37527868 0.2581878 0.42323604 0.08583791
0000e0 c4 cb e3 3d b4 46 fa 3d e7 81 7c bc 69 11 3e 3e
       0.111228496 0.12220517 -0.0154118305 0.18561329
0000f0 af c3 1f be 8f eb 21 be c3 a5 34 be 8c 43 aa 3d
       -0.15601991 -0.15812515 -0.17641358 0.08313665

model.4.weight f4 [4, 64]
000000 19 d0 53 3f 19 1e 0a bf 61 a3 b9 bf 7d 1c fa be
       0.82739407 -0.53952175 -1.4502984 -0.4884986
000010 b8 96 97 bf 26 87 2a be a0 b4 dc bf 08 81 84 3f
       -1.1842871 -0.16653118 -1.7242622 1.0351877
000020 bf c9 f7 3f 7e dd cc bf 05 66 bf be ac f6 ec be
       1.9358443 -1.6005094 -0.37382522 -0.46281946
000030 d2 ab b2 bd 16 5a 27 3f 71 72 f9 be c5 11 a0 3f
       -0.087241784 0.65371835 -0.48720124 1.2505423
000040 2b 20 7a 3f 78 f4 d7 3f 18 00 75 be 8c 7f b6 bf
       0.97705334 1.6871481 -0.23925817 -1.4257674
000050 ef 27 ec bf eb 57 43 bf 2a 26 be 3f ac bb a3 bf
       -1.8449687 -0.7630603 1.4855397 -1.2791648
000060 bb aa 48 bf c7 4c ea 3f 3a 84 2a 3f 28 87 de 3f
       -0.78385514 1.830468 0.6660801 1.7384996
000070 96 91 a2 bf 69 5f c0 3f 6b 13 08 bf 58 71 94 bf
       -1.2700679 1.5029117 -0.5315463 -1.159709
000080 c3 3e 3e 3e 30 d2 9f 3f e7 ae 64 bf 83 bc d9 bd
       0.18578629 1.2486019 -0.8932938 -0.10631659
000090 2f 5c b0 be e2 f6 73 40 4d a3 4e 3f 88 8e 01 bf
       -0.3444533 3.8119435 0.8071793 -0.5060811
0000a0 b7 76 b8 bf a9 2b e0 bf df 94 ba bf 8c 01 ba bf
       -1.4411229 -1.7513324 -1.4576682 -1.4531722
0000b0 5a ae cf be 4f dc 93 bf b5 4c 8e bf 89 e4 1a bf
       -0.40562707 -1.1551608 -1.1117159 -0.60504967
0000c0 dc 01 82 bf c2 8b 94 bf 0f 90 7e bf c9 c4 d2 be
       -1.0156817 -1.1605151 -0.99438566 -0.4116576
0000d0 4d 0f 3c bf b6 6c 94 3f f9 82 a7 3f ea f3 0f 40
       -0.7346085 1.1595676 1.3086845 2.2492623
0000e0 20 d2 24 bf 60 05 42 bf 34 9f d0 be 4d 37 6b bf
       -0.64383125 -0.7578945 -0.40746462 -0.9188126
0000f0 36 c9 a5 be 31 5d b3 bf 9d c4 9d 3d 4a e8 ad bf
       -0.32380074 -1.4012815 0.07703517 -1.3586514
000100 82 49 99 3f d2 4c 0c c0 45 0b 8c bf b0 66 b2 bf
       1.1975558 -2.1921887 -1.0940939 -1.3937588
000110 3f 4f 70 bf f8 0d 2b bf ca f0 25 bf 4a 1b 8b 3f
       -0.9387092 -0.6681819 -0.6482054 1.0867703
000120 90 52 a6 3f c3 15 bf bf 35 1a 32 3f 21 df 54 bf
       1.2993946 -1.4928516 0.6957124 -0.8315297
000130 2a e9 2b 3b 78 0c 85 3f 39 7f 5b bf 79 9c c3 3f
       0.0026231506 1.039443 -0.85741 1.5282127
000140 3c 81 73 3f 40 b1 ee 3f 36 36 90 bf 0e e4 25 bf
       0.9511907 1.8647842 -1.1266544 -0.6480111
000150 62 31 0d bf 18 5b 6e bf 41 21 c1 3f 11 93 e0 bf
       -0.5515348 -0.9310775 1.5088273 -1.7544881
000160 3c 2c 82 bf a0 a8 88 3f 1a 5f ea be 21 66 b6 3f
       -1.0169749 1.067646 -0.45775682 1.4249917
000170 ba b7 fe 3e d2 44 cd 3f 89 37 c1 bf 9f b9 2a be
       0.49749547 1.6036627 -1.5095073 -0.16672371
000180 8c 17 72 3f 6f 8d 26 40 de 3d 99 bf 57 b5 40 be
       0.9456718 2.6023824 -1.1972005 -0.18819176
000190 bf 5b 9e bf 20 99 41 40 11 86 0a 40 ea 6b 91 bf
       -1.2371749 3.024971 2.1644328 -1.1361058
0001a0 61 81 a2 bf 77 14 78 bf f6 ec cd bf 26 10 7e bf
       -1.2695733 -0.96906227 -1.608794 -0.9924339
0001b0 d6 55 9f bf ab 2f 57 c0 2e c9 92 bf 22 79 68 bf
       -1.244807 -3.3622844 -1.1467645 -0.90809834
0001c0 bf 72 b0 bf 41 35 a3 bf 76 97 69 bf 82 a0 52 bf
       -1.3785018 -1.2750627 -0.91246736 -0.82276165
0001d0 c4 ba 21 bf 86 8e a0 bd 32 3f da 3f b3 89 21 40
       -0.63175607 -0.07839684 1.7050536 2.5240295
0001e0 49 09 91 bf b8 9f 0c 3f d1 8e c5 bf d5 45 a8 bf
       -1.1330959 0.5493121 -1.5434209 -1.3146311
0001f0 b3 00 57 bf 60 8a cc bf aa 22 3a bf 44 3b 86 be
       -0.8398544 -1.5979729 -0.72709143 -0.2621709
000200 e8 e4 c1 3f 7f 04 63 3f 75 0b a3 bf 3f 7f 4d bf
       1.5147982 0.88678735 -1.2737871 -0.8027229
000210 1d 89 5d bf cc 60 4f bf 7d 01 5b bf a6 7d ea 3f
       -0.86537343 -0.81007075 -0.85549146 1.8319595
000220 38 a8 4b 3f f0 a2 2a bf dc 98 d0 3e fc 63 28 bf
       0.79553556 -0.6665487 0.40741622 -0.65777564
000230 3e a5 2f bd c6 8e b4 3f 98 96 96 bf 2d f4 0c 40
       -0.042882197 1.4106071 -1.1764708 2.2024033
000240 5a 81 14 40 0b 00 a2 3f f4 12 84 bf 82 55 9d bf
       2.320395 1.2656263 -1.0318284 -1.229172
000250 f2 02 a7 bf 92 b7 66 bf c9 2f bf 3f 25 62 c6 bf
       -1.3047774 -0.90123856 1.4936458 -1.5498701
000260 b0 0f b7 bf 86 8e 22 3f 9c 4f f7 be ba e5 1f 3f
       -1.4301662 0.63498724 -0.48302925 0.6245991
000270 cf c3 80 bd 97 96 93 3f eb b2 81 bf bd 89 c5 bf
       -0.062873475 1.1530331 -1.0132726 -1.5432659
000280 81 53 6b 3f f7 c7 1c bf 20 0a 8c bf a4 83 52 3f
       0.9192429 -0.6124262 -1.094059 0.8223212
000290 eb 82 77 bf 95 88 15 40 f8 5d 27 3f 23 63 1b bf
       -0.9668414 2.3364613 0.6537776 -0.60698146
0002a0 c8 9a 9e bf f0 e4 9f bf 90 65 b5 bf ad 75 3f bf
       -1.2390985 -1.2491741 -1.417162 -0.74788934
0002b0 d6 a3 19 3f 57 72 48 be 82 1e 9a bf e4 71 15 3e
       0.6001562 -0.19574867 -1.204056 0.14594227
0002c0 c8 eb 76 bf 61 d1 8e bf 6c d4 7f bf 7b a0 b3 bf
       -0.96453524 -1.1157647 -0.99933505 -1.403335
0002d0 ac 91 88 bf ce d9 08 3f 80 d4 a4 3f 83 66 29 40
       -1.0669456 0.53457344 1.287735 2.6468818
0002e0 59 c4 08 bf c0 23 b8 3f 2b 6a e4 be eb 7f 96 bf
       -0.534246 1.438591 -0.4461225 -1.1757787
0002f0 9b b4 53 bf ff 44 a3 bf d8 29 59 bf 96 a0 90 bf
       -0.8269746 -1.2755431 -0.84829473 -1.1299007
000300 82 a7 08 40 74 e0 88 3e aa 98 c3 be d8 b7 3d bf
       2.1352239 0.26733744 -0.3820241 -0.7410865
000310 5d 12 8b bf 33 fb a4 bf 87 65 a0 bf fe 76 fb 3f
       -1.0864979 -1.288916 -1.2530984 1.9645689
000320 a6 93 ad 3f e7 97 01 c0 86 a7 0b bf 3e 4e 4d bf
       1.3560684 -2.0248964 -0.54552495 -0.80197513
000330 b0 fc 02 bd d3 38 99 3f 00 fd 23 bf 97 83 dc 3f
       -0.031979263 1.1970466 -0.6405792 1.7227658
000340 7e ef 05 40 55 97 aa 3f 39 e6 b0 3e 85 6d e2 bf
       2.0927424 1.3327433 0.34550646 -1.7689673
000350 c2 ea 54 bf ad de 5b bf e3 ff cf 3f bf 28 4f be
       -0.8317071 -0.8588665 1.6249965 -0.20230387
000360 bb fb 05 bf 7e af 8e 3f e7 ee ba be 6e aa 46 3f
       -0.52337235 1.1147306 -0.36510393 0.77603805
000370 b6 19 2e c0 1d 11 44 3f 87 7d 4f bf 86 82 d7 bf
       -2.7203193 0.7658861 -0.81050915 -1.6836708
000380 e2 34 27 be 08 d1 cf 3f bd e8 78 bf 07 71 3a 3f
       -0.16328767 1.6235666 -0.9723013 0.72828716
000390 fd 61 34 bf 11 57 0b 40 3d c0 2c 3e 97 67 b5 bf
       -0.7046202 2.177189 0.16870208 -1.4172238
0003a0 fb 2f 77 bf 25 3b 89 bf dc 12 8b be e0 cc b7 bd
       -0.9655759 -1.0721174 -0.27162826 -0.08974624
0003b0 96 6a 52 bd 23 ce 94 3e 2e 0b b5 bf ad 8e d7 bf
       -0.05137118 0.2906352 -1.4144037 -1.6840416
0003c0 4a 70 a1 bf 2b 33 64 bf c5 c9 7c bf a1 55 b7 be
       -1.2612393 -0.89140576 -0.98745376 -0.35807517
0003d0 b7 d0 9c bf 6c a7 52 3f e4 07 7f 3f d7 7c 0a 40
       -1.2251195 0.82286716 0.99621415 2.1638696
0003e0 da 08 55 bf 01 3a 10 bd 69 2c 93 bf 40 8f 4c bf
       -0.8321663 -0.035211567 -1.1497928 -0.7990608
0003f0 d7 3b 16 bf 4b 41 fd bf 89 19 be bf 94 87 83 bf
       -0.5868506 -1.9785551 -1.4851543 -1.027575

model.4.bias f4 [4]
000000 2a d5 ca 3e 96 0d 66 be ce eb cd 3e 49 9b 57 be
       0.39615756 -0.2246612 0.40218967 -0.2105533
